Bananas-weights.pth (torch_old, 19578 bytes, 6 tensors)

l_in.weight f4 [50, 37]
-0.47345775 0.13733466 -0.14430816 -0.15080611 -0.0182513 0.13752377 -0.30329666 0.11386205
-0.1736661 -0.0019768716 0.053746168 -0.22711435 -0.32452598 -0.28521883 -0.3531621 -0.1660751
-0.08080571 -0.08597994 0.057683524 -0.10586549 -0.23711346 0.04490897 -0.046976306 -0.09813203
-0.1527603 0.17252938 -0.20606017 -0.32733345 -0.009225103 -0.29698294 0.18439795 -0.37067735
-0.29341924 -0.21645282 -0.21701378 -0.24456502 -0.013152889 0.101540826 -0.11660089 0.15094592
0.08427152 -0.028891707 0.02289593 -0.27839223 -0.25949302 0.030167362 0.22248946 0.051132947
-0.08078922 -0.04595164 0.0060301544 -0.0066400073 -0.021121856 0.0049774284 0.06365296 -0.09192118
0.152158 -0.09547149 -0.1550851 -0.1893916 -0.11104407 0.027001094 -0.11405074 -0.01216648
-0.02299855 0.09753521 0.2098541 0.018006817 0.054477647 0.030626217 -0.11760706 -0.24795692
0.11587883 0.07330825 0.28027204 -0.061911587 -0.1510126 -0.52105474 -0.44330335 -0.51597327
-0.313812 0.23412083 0.1583039 -0.33929113 0.12105267 -0.7202201 -0.05068291 -0.20687406
0.103921294 -0.17418842 -0.03336652 0.01701548 -0.1291613 -0.08792468 -0.57705367 0.094497636
-0.07360636 -0.4817406 -0.04010497 -0.09906477 -0.05669551 0.0351644 -0.13472213 -0.44422862
-0.13557577 0.068257734 -0.6609772 -0.22832821 0.33842167 0.17922997 -0.03404211 0.10290473
0.021733314 0.11779012 0.018991066 0.039653283 -0.15830465 -0.1329481 0.11676306 0.34751445
0.44262528 -0.008921048 -0.034602176 0.04179323 -0.0005625852 -0.053969532 -0.09349823 0.0090117315
-0.11447126 -0.11564139 -0.0059791403 0.11656353 -0.038115256 -0.042023074 0.09580459 -0.18202792
-0.014735738 -0.08774185 0.07626881 0.23266216 0.24522579 0.03534893 0.27598608 -0.01131099
-0.123822324 -0.24136676 -0.0014294517 0.0015255456 -0.051305536 -0.13792714 -0.11192192 -0.067186646
-0.09685691 0.18273939 0.07615288 -0.060074437 0.031836476 -0.28830352 0.19536291 -0.161614
-0.10150799 -0.13281818 -0.53477174 -0.106038354 -0.076941215 -0.011494678 0.09666682 0.10002855
-0.10452547 -0.06631479 0.10514399 0.16077411 0.28192374 0.078531854 -0.011923418 0.02079046
0.12397619 -0.02580581 0.15297696 -0.087635055 -0.038212772 0.04101753 -0.101304434 -0.0034134611
-0.00091640034 0.083726354 -0.08871026 -0.17139857 -0.1503459 -0.1874305 0.0938255 -0.019103797
0.14419785 -0.38946748 -0.66744137 -0.2173747 -0.037446838 0.1299677 -0.3476392 0.105080955
0.063972294 -0.14136656 -0.112052925 -0.16875952 -0.3366974 0.13319711 -0.084850244 -0.006981919
-0.012557396 -0.044572067 0.037970576 -0.46452215 0.035013154 -0.10242621 -0.51208174 0.02618491
-0.08980101 -0.087332904 -0.07027762 -0.2938101 -0.076360345 0.07479758 0.3402232 -0.34429044
-0.4224943 -0.5613995 -1.9503115 -0.07930721 -0.048097387 -0.003213168 0.03271404 -0.015449377
0.014260877 0.11583619 0.075317 0.04957119 -0.035872966 -0.105965115 0.021464232 0.027863605
0.12288554 0.19848911 -0.10317593 -0.03373926 -0.0076719886 0.09671269 0.1117735 -0.11459204
-0.06622436 -0.035914276 0.0045381747 0.087009855 -0.033142608 0.045950007 -0.011681325 -0.061537053
00000000: 0e69 f2be 75a1 0c3e 85c5 13be eb6c 1abe
00000010: c083 95bc 08d3 0c3e b349 9bbe 8230 e93d
00000020: 87d5 31be 678e 01bb f124 5c3d aa90 68be
00000030: 4528 a6be 3408 92be aad1 b4be 970f 2abe
00000040: 777d a5bd 4016 b0bd 8f45 6c3d 02d0 d8bd
00000050: dfcd 72be 78f2 373d 3a6a 40bd 72f9 c8bd
00000060: 326d 1cbe 8bab 303e 7001 53be 4098 a7be
00000070: e324 17bc 260e 98be d1d2 3c3e 6cc9 bdbe
00000080: 0c3b 96be cfa5 5dbe dc38 5ebe 416f 7abe
00000090: 377f 57bc a3f4 cf3d 73cc eebd 9191 1a3e
000000a0: 8c96 ac3d 4dae ecbc 3f90 bb3c 6d89 8ebe
000000b0: 45dc 84be 8b21 f73c 47d4 633e c870 513d
000000c0: d274 a5bd c937 3cbd 9a98 c53b 6b94 d9bb
000000d0: be07 adbc b219 a33b 7c5c 823d 2c41 bcbd
000000e0: 4fcf 1b3e 8e86 c3bd a1ce 1ebe dfef 41be
000000f0: 136b e3bd 6631 dd3c 6f93 e9bd ea55 47bc
00000100: 7567 bcbc 8ac0 c73d fee3 563e 0883 933c
00000110: f423 5f3d d5e3 fa3c f8db f0bd 6be8 7dbe
00000120: e151 ed3d a322 963d d17f 8f3e 0197 7dbd
00000130: 0ca3 1abe d863 05bf a8f8 e2be d316 04bf
00000140: f7ab a0be 5fbd 6f3e 6b1a 223e 91b7 adbe
00000150: 76ea f73d 5860 38bf e298 4fbd cbd6 53be
00000160: b0d4 d43d 735e 32be 55ab 08bd 0c64 8b3c
00000170: dc42 04be db11 b4bd cab9 13bf fa87 c13d
00000180: eebe 96bd b4a6 f6be 1c45 24bd 78e2 cabd
00000190: 8d39 68bd 8c08 103d 99f4 09be ef71 e3be
000001a0: 60d4 0abe b6ca 8b3d cd35 29bf dfce 69be
000001b0: 9b45 ad3e 1088 373e bd6f 0bbd b7bf d23d
000001c0: 100a b23c f23b f13d 2793 9b3c 7b6b 223d
000001d0: 9d1a 22be 8c23 08be 7921 ef3d 6aed b13e
000001e0: c89f e23e 9629 12bc 03bb 0dbd 612f 2b3d
000001f0: 747a 13ba 280f 5dbd 007c bfbd f1a5 133c
00000200: e86f eabd 65d5 ecbd aaec c3bb dcb8 ee3d
00000210: be1e 1cbd 6320 2cbd 3235 c43d 8765 3abe
00000220: 2a6e 71bc 00b2 b3bd d232 9c3d fd3e 6e3e
00000230: 781c 7b3e 0aca 103d 0c4e 8d3e bb51 39bc
00000240: 8f96 fdbd d928 77be 715c bbba d1f4 c73a
00000250: c125 52bd c63c 0dbe 5237 e5bd 2799 89bd
00000260: ea5c c6bd 0920 3b3e 0bf6 9b3d 9d10 76bd
00000270: f766 023d 859c 93be 370d 483e 247e 25be
00000280: 6ce3 cfbd 7d01 08be cde6 08bf a32a d9bd
00000290: 5b93 9dbd 2d54 3cbc 41f9 c53d c5db cc3d
000002a0: 7311 d6bd 0cd0 87bd bb55 d73d f8a1 243e
000002b0: 4f58 903e 4fd5 a03d 715a 43bc c150 aa3c
000002c0: 3be7 fd3d b566 d3bc fea5 1c3e 027a b3bd
000002d0: ff84 1cbd ff01 283d b378 cfbd 60b4 5fbb
000002e0: 963a 70ba b978 ab3d baad b5bd 1b83 2fbe
000002f0: 47f4 19be c8ed 3fbe 9527 c03d 917f 9cbc
00000300: 9aa8 133e 4868 c7be 70dd 2abf 7997 5ebe
00000310: db61 19bd 4116 053e c4fd b1be af34 d73d
00000320: e803 833d 65c2 10be 017c e5bd 4ccf 2cbe
00000330: 9a63 acbe d364 083e f7c5 adbd 95c8 e4bb
00000340: 89bd 4dbc 3391 36bd 0987 1b3d d9d5 edbe
00000350: f469 0f3d d5c4 d1bd ca17 03bf bd81 d63c
00000360: 98e9 b7bd 98db b2bd b6ed 8fbd 476e 96be
00000370: d062 9cbd 792f 993d bc31 ae3e d646 b0be
00000380: 2c51 d8be e1b7 0fbf cfa3 f9bf d26b a2bd
00000390: c401 45bd 0394 52bb 28ff 053d 621f 7dbc
000003a0: 74a6 693c 863b ed3d cd3f 9a3d 290b 4b3d
000003b0: 88ef 12bd 3d04 d9bd c2d5 af3c 3742 e43c
000003c0: 6aab fb3d bb40 4b3e e74d d3bd 2e32 0abd
000003d0: 4e65 fbbb 4e11 c63d 81e9 e43d 3baf eabd
000003e0: a3a0 87bd d91a 13bd f8b4 943b 3932 b23d
000003f0: 8bc0 07bd 1336 3c3d 0763 3fbc 470e 7cbd

l_in.bias f4 [50]
-0.033765633 -0.14225255 0.017685857 -0.0046976334 0.1634602 0.050011396 0.1406961 0.083094776
0.05134015 0.21592756 -0.0681042 0.24926676 0.10444145 0.17233132 0.034577552 -0.16053951
-0.096877925 0.07910243 0.010748871 0.086634204 0.19221528 -0.109437905 -0.055992946 0.009113282
0.1423334 0.01836017 0.045947313 -0.087593354 0.054832976 0.018184194 0.17002995 -0.2161228
-0.17202266 -0.16106828 -0.037973218 -0.14427991 0.11445671 -0.06165061 -0.075783774 -0.10994376
0.022287237 0.27532336 0.13555215 0.00091029535 -0.22622702 -0.1003705 -0.10787857 -0.08918264
0.13136667 -0.020120626
00000000: d54d 0abd a7aa 11be eee1 903c 9bee 99bb
00000010: 1c62 273e c0d8 4c3d a312 103e 982d aa3d
00000020: 0d4a 523d 1d1c 5d3e 377a 8bbd c93f 7f3e
00000030: 66e5 d53d 9f77 303e 31a1 0d3d 7864 24be
00000040: ef67 c6bd 7400 a23d 081c 303c 466d b13d
00000050: 15d4 443e fb20 e0bd dc58 65bd e04f 153c
00000060: d9bf 113e 1168 963c 4033 3c3d 2564 b3bd
00000070: 8b98 603d 05f7 943c 551c 2e3e 4c4f 5dbe
00000080: b526 30be 15ef 24be ce89 1bbd 1dbe 13be
00000090: 4868 ea3d 5a85 7cbd 8634 9bbd 322a e1bd
000000a0: b993 b63c 2ff7 8c3e 2fce 0a3e e3a0 6e3a
000000b0: 0ea8 67be 0c8f cdbd 71ef dcbd 63a5 b6bd
000000c0: fc84 063e 03d4 a4bc

hidden.weight f4 [50, 50]
0.040297683 -0.01932348 -0.12936021 0.08376832 0.10302008 -0.02535305 0.054721776 0.051449556
-0.25385624 0.11771705 -0.05334793 -0.13009387 0.068484366 -0.17118636 -0.21815349 0.04410635
0.036148265 0.060296368 0.105826356 0.06707645 -0.029341703 0.115362756 0.275855 0.14361605
0.044493075 0.1738849 0.055072792 0.11908971 0.11522651 0.39457715 -0.21636827 -0.12774773
-0.10269827 0.0005924981 0.2709932 -0.001154415 0.046309017 0.15865083 0.17330725 -0.107005164
0.29334608 -0.026353631 0.10236937 0.26346982 0.009031637 -0.009958289 -0.009246651 0.14225627
0.17381918 -0.066633925 -0.12200135 -0.015913473 -0.009308323 -0.13566525 -0.01752405 0.033832587
0.41751876 0.07289977 0.026912848 0.074504934 0.016962918 0.14531568 -0.089548 0.13648145
-0.008584735 -0.06041928 -0.18347429 -0.07223224 -0.14879704 -0.13045153 -0.2313009 -0.037388396
0.56827086 -0.22966167 -0.022063304 0.013109581 0.11787323 0.22730526 0.09581759 0.2505803
0.020098144 -0.018480174 -0.29323384 -0.20332246 -0.3158979 0.04975703 0.018617481 0.2705741
-0.042274382 -0.03820655 0.12091765 -0.06329838 0.10336476 0.48967072 -0.32327977 0.043660637
0.1281564 -0.040164847 -0.11319243 -0.26396143 0.212461 -0.006507793 0.2408885 0.08588815
0.037653226 -0.24803078 0.4034988 -0.1658356 -0.1594638 0.08994846 -0.0907036 0.00036539626
-0.10040909 -0.010993291 -0.08392694 -0.005826462 -0.11022369 0.22561899 -0.10072787 -0.1257487
-0.121797845 -0.119902596 0.58633775 0.044604454 -0.03562665 0.11766978 0.10477691 -0.18299182
-0.10958983 0.18624786 0.19369939 0.1765236 -0.14654668 0.011015997 0.06626546 0.07606329
0.0131171215 0.036365267 0.19958463 -0.049818996 -0.1447577 -0.09214021 0.114759065 0.5196526
0.087818034 0.076587446 0.1701445 -0.042199798 -0.08020385 0.10020885 -0.27267784 0.05592509
-0.038662784 0.13374007 -0.052529555 -0.05058022 0.1811406 0.1130937 -0.029067554 0.0008961005
-0.067666486 0.07854721 0.007709528 0.13750422 -0.17407496 0.029269654 -0.061765213 0.044349622
-0.0764591 -0.09137614 -0.011468753 0.047380485 -0.009942121 0.033274572 0.0193459 0.024360107
0.15607832 0.1667542 0.18642086 0.34555534 -0.30169287 -0.09694984 -0.25327116 0.044483736
0.029037839 0.039495435 -0.072371274 0.13293545 0.43799543 -0.046850745 0.54228264 -0.24145342
0.38457146 0.07317455 0.027110882 -0.093967505 0.023444891 0.21837868 -0.17726035 0.047207743
-0.15393919 0.06112421 -0.10204818 0.0519728 0.008699279 0.14332823 0.4025635 0.041327097
0.20342587 0.15956171 0.06707724 0.03674571 0.07365514 0.2347864 -0.045715485 -0.03694239
-0.09331579 -0.09892619 0.16688597 0.103472196 0.12799785 0.14303248 0.24244401 0.06288116
0.101318724 0.036204822 0.13501953 0.09666941 0.24262111 0.11823659 -0.19227427 -0.056629397
-0.059018295 0.012595301 0.040663246 0.009886576 0.23496355 -0.06301344 0.2952303 0.089608416
0.1771672 0.23591216 -0.043775722 0.112177916 -0.0059634745 -0.004038069 -0.041766558 -0.034613077
-0.14855959 -0.054924946 0.13133202 0.08435833 -0.032882515 -0.08257191 -0.1439796 -0.030076021
00000000: 2f0f 253d 464c 9ebc 0177 04be ba8e ab3d
00000010: 31fc d23d 33b1 cfbc f123 603d c5bc 523d
00000020: 72f9 81be a315 f13d 5c83 5abd 5437 05be
00000030: 8841 8c3d 7a4b 2fbe a163 5fbe dca8 343d
00000040: 3410 143d 53f9 763d 7dbb d83d 615f 893d
00000050: 035e f0bc 4f43 ec3d de3c 8d3e 1610 133e
00000060: 5f3e 363d e20e 323e 0294 613d 4ee5 f33d
00000070: e0fb eb3d 0406 ca3e a58f 5dbe 4dd0 02be
00000080: 7853 d2bd e051 1b3a 9fbf 8a3e bd4f 97ba
00000090: 86ae 3d3d 5d75 223e 7577 313e 8625 dbbd
000000a0: 7531 963e 92e3 d7bc 08a7 d13d 84e5 863e
000000b0: 6ef9 133c 1728 23bc 447f 17bc a1ab 113e
000000c0: a8fd 313e 5e77 88bd d8db f9bd f95c 82bc
000000d0: f081 18bc d5eb 0abe 998e 8fbc 0a94 0a3d
000000e0: 05c5 d53e 7a4c 953d 5578 dc3c 0b96 983d
000000f0: d1f5 8a3c a2cd 143e f164 b7bd cbc1 0b3e
00000100: fda6 0cbc 357a 77bd afe0 3bbe 7fee 93bd
00000110: 405e 18be 1695 05be 25da 6cbe 9324 19bd
00000120: 337a 113f 6e2c 6bbe 1abe b4bc 91c9 563c
00000130: 8567 f13d b6c2 683e 033c c43d 104c 803e
00000140: dda4 a43c bc63 97bc bf22 96be c333 50be
00000150: 5fbd a1be 07ce 4b3d b083 983c b088 8a3e
00000160: e727 2dbd 797e 1cbd aca3 f73d 95a2 81bd
00000170: e7b0 d33d 1fb6 fa3e ed84 a5be 7fd5 323d
00000180: 6e3b 033e e583 24bd 6fd1 e7bd f425 87be
00000190: 608f 593e 533f d5bb 7aab 763e 20e6 af3d
000001a0: 453a 1a3d c8fb 7dbe 6597 ce3e cfd0 29be
000001b0: 7a4a 23be e636 b83d cfc2 b9bd a892 bf39
000001c0: 48a3 cdbd 341d 34bc e3e1 abbd e8eb bebb
000001d0: f5bc e1bd aa08 673e 6a4a cebd 44c4 00be
000001e0: 2671 f9bd 7e8f f5bd 3b1a 163f 29b3 363d
000001f0: 40ed 11bd dbfc f03d 4795 d63d 3562 3bbe
00000200: a270 e0bd c2b7 3e3e 2259 463e 9ac2 343e
00000210: 5510 16be 717c 343c 2fb6 873d 12c7 9b3d
00000220: 32e9 563c bff3 143d ea5f 4c3e 010f 4cbd
00000230: 5d3b 14be 02b4 bcbd cd06 eb3d f407 053f
00000240: f1d9 b33d e1d9 9c3d 5c3a 2e3e b2d9 2cbd
00000250: eb41 a4bd 4c3a cd3d 6e9c 8bbe b511 653d
00000260: de5c 1ebd 28f3 083e 3b29 57bd 342d 4fbd
00000270: ec7c 393e ab9d e73d 141f eebc 49e8 6a3a
00000280: ba94 8abd 5cdd a03d 35a0 fc3b e8cd 0c3e
00000290: b540 32be eac6 ef3c 85fd 7cbd f3a7 353d
000002a0: 9796 9cbd 6a23 bbbd 70e7 3bbc 0a12 423d
000002b0: 47e4 22bc eb4a 083d 4b7b 9e3c d98e c73c
000002c0: ffd2 1f3e 9dc1 2a3e 1ce5 3e3e a1ec b03e
000002d0: 7d77 9abe a38d c6bd c2ac 81be 9434 363d
000002e0: c3e0 ed3c f7c5 213d 6437 94bd 3b20 083e
000002f0: f040 e03e 91e6 3fbd 09d3 0a3f 913f 77be
00000300: 8de6 c43e 8adc 953d a417 de3c 0972 c0bd
00000310: 800f c03c a99e 5f3e bd83 35be e85c 413d
00000320: 3ca2 1dbe 615d 7a3d a3fe d0bd 6ee1 543d
00000330: 6c87 0e3c a3c4 123e ce1c ce3e 9a46 293d
00000340: df4e 503e 2564 233e cb5f 893d ab82 163d
00000350: 82d8 963d d96b 703e 2940 3bbd e750 17bd
00000360: 591c bfbd d099 cabd 28e4 2a3e 3be9 d33d
00000370: de11 033e 1b77 123e 3e43 783e d6c7 803d
00000380: 3180 cf3d 824b 143d 8f42 0a3e 9dfa c53d
00000390: ab71 783e 0626 f23d 8ce3 44be 3af4 67bd
000003a0: 2bbd 71bd 855c 4e3c 818e 263d 4efb 213c
000003b0: 499a 703e 310d 81bd 6d28 973e 9e84 b73d
000003c0: 526b 353e f592 713e 2c4e 33bd 89bd e53d
000003d0: 4069 c3bb c751 84bb 6913 2bbd 71c6 0dbd
000003e0: 0120 18be fbf8 60bd e77b 063e 0fc4 ac3d
000003f0: d1af 06bd 761b a9bd 636f 13be fd61 f6bc

hidden.bias f4 [50]
0.021687904 -0.14114313 -0.020535419 -0.07385889 0.42111784 0.15041411 -0.068107046 0.08337454
0.046805162 -0.0725659 0.08217665 0.2769528 -0.059609555 -0.19292532 -0.073377214 0.13423231
0.06595598 0.02493384 -0.00021026688 0.011376661 0.014923857 -0.15999202 0.040720847 -0.09403106
0.3772811 -0.15426983 -0.054576885 0.29236197 -0.093110316 0.25494695 0.3490302 0.14595239
0.026818238 -0.07055495 0.019251492 0.03029555 -0.13798799 -0.0646739 -0.04389982 0.09491097
0.14811686 0.09198524 0.083558135 0.11123979 0.0741097 0.07338801 -0.17796992 0.04443712
-0.013739995 -0.084407896
00000000: d5aa b13c d387 10be e539 a8bc 5443 97bd
00000010: c29c d73e 2806 1a3e b57b 8bbd 45c0 aa3d
00000020: c5b6 3f3d 6e9d 94bd 3b4c a83d c2cc 8d3e
00000030: 2629 74bd 378e 45be cb46 96bd 3274 093e
00000040: ee13 873d 0d42 cc3c 167b 5cb9 2d65 3a3c
00000050: 3183 743c f3d4 23be e7ca 263d 5b93 c0bd
00000060: fd2a c13e e9f8 1dbe 038c 5fbd 78b0 953e
00000070: 9fb0 bebd 6888 823e 16b4 b23e 8b74 153e
00000080: ecb1 db3c 1d7f 90bd 4eb5 9d3c 602e f83c
00000090: b94c 0dbe c073 84bd 4cd0 33bd af60 c23d
000000a0: f2ab 173e c262 bc3d 8720 ab3d b0d1 e33d
000000b0: d4c6 973d 744c 963d bf3d 36be b303 363d
000000c0: b71d 61bc 0cde acbd

l_out.weight f4 [4, 50]
0.10475367 -0.16776298 -0.3888328 -0.19068246 0.17577414 0.43712834 -0.09251532 0.05302624
-0.04306393 0.15685613 0.04571857 0.16135967 0.23975177 -0.23347344 0.010417793 0.4032496
0.1142491 -0.122978486 0.09398746 0.34369576 0.29351792 -0.35214937 0.06168621 0.12687767
0.25022966 -0.0781184 0.12532917 0.2076829 0.372188 0.13098425 0.14852999 -0.2198045
-0.13813968 -0.042444967 -0.2505518 0.060846537 -0.38425794 -0.22920369 -0.050100796 -0.20301488
0.20867005 -0.15938662 0.10961953 0.44605702 -0.009814909 0.1592873 -0.26796567 0.04192532
0.22117947 -0.022211477 0.08667464 -0.25776905 -0.01340003 -0.14702109 0.23347041 0.45938453
0.18881033 0.05119375 0.044618655 0.40203607 0.16864365 0.19119781 0.40625513 -0.13136671
0.0007614252 0.24752003 -0.039367214 -0.04653736 0.27522054 0.2697114 0.18995005 -0.16798177
0.16377775 0.26713628 0.18177475 -0.0017108985 -0.06603781 0.35783014 0.38452613 0.114212245
-0.012144769 -0.011489707 0.03332493 0.0731227 0.031061916 0.1465697 -0.062261242 -0.09522581
-0.1774099 0.02139118 0.18695253 -0.39536926 0.28670713 0.15960382 -0.50610906 0.23821035
-0.13137135 -0.25389567 0.16209151 0.024333969 0.16773313 -0.1721158 -0.061951093 -0.409668
0.12593652 0.14271435 0.16664185 0.118576944 0.12771438 -0.32825556 -0.29386085 0.17573193
0.49575043 -0.06775773 0.057638243 0.16213822 0.063711375 0.135235 0.11832947 0.1358255
0.2403879 -0.296868 0.15307412 -0.12310099 0.2563453 0.17562585 0.1663134 0.3551619
0.5605813 0.047360424 0.19705757 -0.29036194 -0.33449748 -0.11272725 -0.05185361 -0.21901909
-0.27425027 0.07120913 -0.28845474 0.1107254 0.20275718 -0.3448439 0.029940197 0.059761282
0.12405758 0.31134367 -0.027399505 -0.27415013 0.08811251 -0.12879588 0.15282029 -0.43417528
-0.47551912 0.060823675 0.22889577 0.60676676 -0.44194484 0.20016277 0.304336 0.5596048
-0.108493716 0.1982055 0.38470516 -0.31992477 -0.5184395 0.026351161 -0.07879685 -0.099437356
0.71028227 0.35938853 0.403317 -0.29112342 -0.11552574 0.3731569 0.15578137 -0.044593327
-0.2723325 0.2199447 0.00889762 0.19593415 0.21766771 0.013791296 0.047268342 0.08583826
-0.25258955 -0.27333203 -0.11189242 0.03388546 -0.039554343 0.031263206 0.28190875 -0.12334009
0.13595277 0.07905491 -0.019990552 0.07258625 -0.4687822 -0.15191256 0.22334786 0.12898321
00000000: 1889 d63d 0fca 2bbe 1815 c7be 4342 43be
00000010: 23fe 333e 49cf df3e ac78 bdbd 0b32 593d
00000020: ce63 30bd e59e 203e 6543 3b3d 783b 253e
00000030: 7d81 753e a913 6fbe 64af 2a3c bb76 ce3e
00000040: 6ffb e93d 25dc fbbd 7f7c c03d e4f8 af3e
00000050: fb47 963e ec4c b4be aeaa 7c3d 38ec 013e
00000060: 1a1e 803e 8afc 9fbd 4a56 003e d3aa 543e
00000070: 6d8f be3e bc20 063e 3f18 183e 6e14 61be
00000080: 7d74 0dbe c6da 2dbd 5348 80be 383a 793d
00000090: 75bd c4be 5fb4 6abe 7e36 4dbd 22e3 4fbe
000000a0: 9aad 553e 3f36 23be 3480 e03d 9661 e43e
000000b0: b6ce 20bc 361c 233e cc32 89be e2b9 2b3d
000000c0: df7c 623e d8f4 b5bc 7982 b13d 4efa 83be
000000d0: cd8b 5bbc b28c 16be de12 6f3e 7334 eb3e
000000e0: 7f57 413e 8ab0 513d 0dc2 363d acd7 cd3e
000000f0: ecb0 2c3e 5cc9 433e ac00 d03e ff84 06be
00000100: 619a 473a e475 7d3e 843f 21bd f59d 3ebd
00000110: b5e9 8c3e 9d17 8a3e 4482 423e 6a03 2cbe
00000120: 5bb5 273e 16c6 883e 2923 3a3e 3a40 e0ba
00000130: d53e 87bd 8335 b73e 9ce0 c43e 1ce8 e93d
00000140: dafa 46bc 533f 3cbc b97f 083d 5bc1 953d
00000150: 8f75 fe3c 5e16 163e a505 7fbd c005 c3bd
00000160: f1aa 35be 8e3c af3c 7c70 3f3e d76d cabe
00000170: 47cb 923e 2f6f 233e 5d90 01bf 6aed 733e
00000180: 3686 06be 9dfe 81be 51fb 253e 0858 c73c
00000190: 3cc2 2b3e 203f 30be 6ec0 7dbd 01c0 d1be
000001a0: 81f5 003e b623 123e 29a4 2a3e 78d8 f23d
000001b0: 8fc7 023e 1d11 a8be ee74 96be 12f3 333e
000001c0: 00d3 fd3e 91c4 8abd 1416 6c3d 9007 263e
000001d0: 1c7b 823d 0b7b 0a3e b956 f23d d715 0b3e
000001e0: 3f28 763e 15ff 97be 76bf 1c3e 5f1c fcbd
000001f0: b13f 833e 43d7 333e 0f4e 2a3e c8d7 b53e
00000200: 4282 0f3f 01fd 413d 76c9 493e 52aa 94be
00000210: 4143 abbe 8bdd e6bd 7364 54bd 8a46 60be
00000220: 886a 8cbe 18d6 913d 57b0 93be 00c4 e23d
00000230: 949f 4f3e 618f b0be 2545 f53c 3fc8 743d
00000240: e711 fe3d 7068 9f3e ed74 e0bc 685d 8cbe
00000250: 5574 b43d 11e3 03be ec7c 1c3e 394c debe
00000260: 3e77 f3be 3f22 793d a763 6a3e 1155 1b3f
00000270: 9846 e2be 78f7 4c3e eed1 9b3e 4342 0f3f
00000280: f431 debd 62f6 4a3e 13f8 c43e 2ecd a3be
00000290: 73b8 04bf 64de d73c 3e60 a1bd d0a5 cbbd
000002a0: 0fd5 353f c601 b83e 917f ce3e 210e 95be
000002b0: c298 ecbd 6c0e bf3e 2785 1f3e 7ea7 36bd
000002c0: 2a6f 8bbe 2f39 613e 53c7 113c f6a2 483e
000002d0: 49e4 5e3e e3f4 613c 739c 413d f8cb af3d
000002e0: 6b53 81be 2df2 8bbe da27 e5bd 7bcb 0a3d
000002f0: bc03 22bd d90d 003d 5856 903e bb99 fcbd
00000300: 3437 0b3e 8ae7 a13d 3ac3 a3bc 1aa8 943d
00000310: 3804 f0be f78e 1bbe 4db5 643e 2d14 043e

l_out.bias f4 [4]
0.20026116 0.18124849 0.16813213 0.07522697
00000000: 4311 4d3e 3499 393e d42a 2c3e 9910 9a3d
