Bananas-weights.pth (torch_old, 19578 bytes, 6 tensors)

l_in.weight f4 [50, 37]
-0.053033758 0.07784387 -0.22851299 -0.5477788 -0.12329794 -0.47841623 -0.06393533 0.2560822
-0.2881103 0.05759936 0.17001726 -0.5427395 -0.26817322 -0.46333528 -0.6667757 -0.24065918
-0.0033711456 -0.12426602 0.06417308 -0.27003738 -0.49695694 -0.106320515 0.27316758 -0.1675151
-0.121021025 -0.22207719 0.040593628 -0.24190089 0.030093828 -0.25248143 0.0076512834 -0.026910152
-0.11061954 -0.56948495 0.031188961 -0.16594274 -0.09576623 0.21576773 -0.06922194 -0.04912957
0.07913022 0.01348183 -0.16940281 -0.13763791 -0.051103335 0.0020609756 0.04678829 0.119746335
0.003671586 -0.15232901 0.0015850039 -0.00958186 0.19955502 -0.22490782 -0.12043483 0.016640557
0.3225669 -0.05384874 -0.1939784 -0.0005150479 -0.18608485 0.04527539 0.055455808 -0.24917862
-0.06302357 0.060935374 0.389224 0.10400552 -0.050056644 0.045068707 -0.018355353 -0.19647166
0.044186108 -0.031960446 0.14292125 0.1779696 -0.09578079 -0.839431 -0.41855478 -0.32597864
-0.22997437 0.13720936 0.12083675 -0.41933697 0.0013981654 -0.56559515 0.114093535 -0.19013166
-0.11609556 -0.25686306 -0.01841121 -0.51194364 0.32914114 -0.10862598 -0.81034034 -0.0069677588
0.12555015 -0.41433284 -0.0052694203 0.10636715 -0.042674296 -0.28271803 -0.15801242 -0.12834509
-0.2557014 0.049658425 -0.3275019 -0.1710442 -0.08846771 0.041117195 -0.087887265 0.13245174
0.054681223 0.102130584 -0.0046730353 -0.0832932 -0.019044854 0.011098118 0.08715199 0.028629594
0.06629144 0.028219156 -0.008027216 0.004922211 0.045403123 0.04361511 -0.081434414 -0.026153289
-0.03421972 -0.11727917 -0.05372264 0.393993 -0.53038305 -0.2640827 -0.25579572 -1.6278987
0.09577677 -0.0052490183 0.009614501 0.06723627 0.018479858 0.093692996 0.13169615 0.03510863
0.018696649 -0.009104605 0.0082714595 0.0011735696 -0.06258329 -0.15667745 -0.18505313 -0.101965256
-0.11912917 0.0006064983 -0.0069650873 0.1602615 0.26533878 0.15361586 0.07239255 -0.10389889
-0.1069601 -0.08115861 -0.13647756 -0.11996502 -0.045426004 0.026873909 -0.120502435 0.04232288
0.017439852 -0.1354514 0.041933335 -0.062906936 0.0035267803 0.09507409 -0.0474415 0.034480516
-0.09969421 -0.1760217 0.02664797 -0.014807879 0.06841154 -0.053926207 -0.15924184 0.3149205
0.029548472 -0.16248266 -0.23039211 0.14138304 -0.11340959 0.0012529894 -0.00203636 0.09114135
0.11630118 -0.3973785 -0.49397585 -0.18447243 -0.295216 0.05206448 -0.19447829 -0.24331559
-0.06507118 0.08153422 -0.39365253 -0.07741025 -0.34074497 -0.10763761 -0.22065626 0.27392152
-0.027042102 -0.19833766 0.1200029 -0.15142867 -0.2967398 -0.45580012 -0.27629694 -0.02642988
-0.46349216 0.05546945 -0.4477301 -0.6419011 -0.21925697 0.05745617 0.2941044 -0.27866018
-0.095194966 -0.34163624 -1.242995 -0.01620449 -0.040783327 -0.026341403 0.015253654 0.08738545
0.02180016 0.05204512 0.08642649 0.046625197 0.06786469 -0.17384823 -0.09584608 0.12112409
0.22891031 0.38356683 0.07697597 -0.13207217 0.076990366 -0.0065082363 -0.0627467 -0.08052578
-0.030974202 -0.113937445 -0.20497252 -0.0778365 -0.049583163 0.078394175 0.015982615 -0.2397941
00000000: ed39 59bd 9b6c 9f3d 4fff 69be 3b3b 0cbf
00000010: a183 fcbd f9f2 f4be 87f0 82bd 351d 833e
00000020: 3183 93be 4eed 6b3d 0119 2e3e faf0 0abf
00000030: 004e 89be 483a edbe d0b1 2abf 5c6f 76be
00000040: 70ee 5cbb 2f7f febd 2d6d 833d 5742 8abe
00000050: 2471 febe 92be d9bd 9fdc 8b3e 1489 2bbe
00000060: dfd9 f7bd 3468 63be 8145 263d deb4 77be
00000070: 5587 f63c 3f45 81be 9eb7 fa3b ae72 dcbc
00000080: 7f8c e2bd c4c9 11bf fe7f ff3c e5ec 29be
00000090: 1621 c4bd 37f2 5c3e 3cc4 8dbd 173c 49bd
000000a0: 060f a23d e5e2 5c3c ee77 2dbe f4f0 0cbe
000000b0: bb51 51bd 6f11 073b 14a5 3f3d 913d f53d
000000c0: fe9e 703b 23fc 1bbe e8bf cf3a 3cfd 1cbc
000000d0: 2758 4c3e 3c4e 66be 89a6 f6bd c751 883c
000000e0: 7d27 a53e 7f90 5cbd 46a2 46be 4804 07ba
000000f0: 078d 3ebe b072 393d a125 633d ae28 7fbe
00000100: 8012 81bd 5f97 793d 5e48 c73e d900 d53d
00000110: 3208 4dbd f799 383d f75d 96bc de2f 49be
00000120: 7efc 343d f5e8 02bd f359 123e aa3d 363e
00000130: b828 c4bd f3e4 56bf d04c d6be ace6 a6be
00000140: 677e 6bbe 9c80 0c3e 4279 f73d 56b3 d6be
00000150: a542 b73a d8ca 10bf dfa9 e93d e0b1 42be
00000160: 82c3 edbd 8e83 83be 1bd3 96bc bd0e 03bf
00000170: 3085 a83e 4c77 debd 7772 4fbf cc51 e4bb
00000180: 3890 003e 6f23 d4be 1aab acbb 05d7 d93d
00000190: 3ecb 2ebd 6bc0 90be 02ce 21be e56c 03be
000001a0: 4beb 82be a266 4b3d 54ae a7be 3626 2fbe
000001b0: 8f2e b5bd 816a 283d 3dfe b3bd 6ea1 073e
000001c0: 6bf9 5f3d d729 d13d 4320 99bb a095 aabd
000001d0: f403 9cbc e1d4 353c be7c b23d 9c88 ea3c
000001e0: cec3 873d dc2b e73c 9684 03bc 804a a13b
000001f0: a0f8 393d c2a5 323d 16c7 a6bd 6c3f d6bc
00000200: fa29 0cbd 1030 f0bd 450c 5cbd 73b9 c93e
00000210: 2fc7 07bf d935 87be a8f7 82be fc5e d0bf
00000220: 9c26 c43d f5ff abbb 2486 1d3c 2bb3 893d
00000230: 1263 973c 1de2 bf3d 5bdb 063e 11ce 0f3d
00000240: b729 993c 7b2b 15bc 0485 073c 76d2 993a
00000250: ab2b 80bd 0e70 20be 917e 3dbe 29d3 d0bd
00000260: fff9 f3bd 69fd 1e3a 633b e4bb 971b 243e
00000270: 7cda 873e 7a4d 1d3e 8c42 943d f1c8 d4bd
00000280: e60d dbbd 7c36 a6bd c6c0 0bbe 38b0 f5bd
00000290: 9e10 3abd ac26 dc3c fbc9 f6bd c25a 2d3d
000002a0: 05de 8e3c c6b3 0abe 4ac2 2b3d 5ad5 80bd
000002b0: 8e21 673b 34b6 c23d 0552 42bd 713b 0d3d
000002c0: 7a2c ccbd 083f 34be d84c da3c bf9c 72bc
000002d0: 591b 8c3d bae1 5cbd 4b10 23be 433d a13e
000002e0: a30f f23c db61 26be e9eb 6bbe b7c6 103e
000002f0: 4a43 e8bd 593b a43a 7474 05bb 51a8 ba3d
00000300: 502f ee3d 3275 cbbe 67ea fcbe 57e6 3cbe
00000310: 8d26 97be 9041 553d 5125 47be b927 79be
00000320: 0a44 85bd 6afb a63d d38c c9be 4489 9ebd
00000330: 2076 aebe 1b71 dcbd b7f3 61be 713f 8c3e
00000340: 6687 ddbc 0719 4bbe 15c4 f53d 1e10 1bbe
00000350: 47ee 97be a25e e9be cb76 8dbe 7a83 d8bc
00000360: d84e edbe ef33 633d e13c e5be a153 24bf
00000370: e684 60be 2957 6b3d da94 963e 8cac 8ebe
00000380: 94f5 c2bd f2ea aebe 761a 9fbf 47bf 84bc
00000390: 6b0c 27bd edc9 d7bc 76ea 793c 25f7 b23d
000003a0: 4096 b23c 442d 553d 5f00 b13d 10fa 3e3d
000003b0: a5fc 8a3d 4505 32be f34a c4bd e80f f83d
000003c0: 7767 6a3e df62 c43e 94a5 9d3d ed3d 07be
000003d0: 20ad 9d3d 0b43 d5bb 5881 80bd b3ea a4bd
000003e0: 9cbd fdbc 0958 e9bd 51e4 51be be68 9fbd
000003f0: b717 4bbd 208d a03d f9ed 823c 968c 75be

l_in.bias f4 [50]
-0.0020830834 -0.10591749 0.04146196 0.021152051 0.12620555 -0.010618882 0.11447502 0.10189007
0.111402914 0.2049857 -0.028870624 0.22918424 0.09659577 0.15123674 -0.030128878 -0.19636028
-0.021146946 0.10636072 -0.04404742 0.08672301 0.11728959 -0.12931743 -0.049266163 -0.044038117
0.12775302 -0.08582231 0.049050298 -0.020865701 0.06354512 -0.034608718 0.16318372 -0.181867
-0.13450694 -0.15164068 0.0020795374 -0.14898144 0.031982034 -0.03795606 -0.046253134 -0.09127451
0.004167083 0.2827411 0.11461858 0.033129156 -0.13988663 -0.09082219 -0.11384262 -0.083275996
-0.038525276 0.04303558
00000000: 5784 08bb 45eb d8bd 04d4 293d 1147 ad3c
00000010: 073c 013e d2fa 2dbc e171 ea3d beab d03d
00000020: 3627 e43d c5e7 513e 1682 ecbc 46af 6a3e
00000030: 01d4 c53d cedd 1a3e d6d0 f6bc ab12 49be
00000040: 5c3c adbc a6d3 d93d 116b 34bd d59b b13d
00000050: 8635 f03d ca6b 04be 51cb 49bd 5061 34bd
00000060: b0d1 023e 9bc3 afbd f7e8 483d 8cee aabc
00000070: f223 823d dfc1 0dbd a219 273e 583b 3abe
00000080: 30bc 09be b247 1bbe d948 083b 978e 18be
00000090: 98ff 023d d077 1bbd ed73 3dbd 21ee babd
000000a0: 078c 883b 71c3 903e 25bd ea3d 70b2 073d
000000b0: 713e 0fbe fc00 babd 5226 e9bd 9b8c aabd
000000c0: aecc 1dbd 1446 303d

hidden.weight f4 [50, 50]
0.08644244 0.012572398 -0.025755676 0.21534558 0.044524904 -0.104786515 -0.04418038 0.059345346
-0.05057169 0.06530751 0.021948887 -0.059331335 0.08597124 -0.085736714 -0.2594203 0.078134105
0.07576185 0.16127874 0.18739107 0.083366424 0.019498901 -0.085055515 0.15065637 0.11211293
-0.012474096 0.14808719 0.087065384 0.089446984 0.11390801 0.24363038 -0.23407006 -0.24992734
-0.18912193 -0.0059265266 0.15276769 -0.038678046 -0.045997817 0.17144883 -0.15457645 -0.06846663
0.12810272 0.00018968844 -0.20862749 0.14374804 -0.056325056 -0.005761352 0.10481385 0.1247035
-0.030019706 -0.14976664 -0.36712718 0.07807183 -0.053287663 0.31275842 0.051626336 0.13768074
-0.02395393 -0.047264643 -0.026448525 0.05791495 0.09554854 -0.1803984 0.14292711 0.1283545
-0.1647831 -0.13093483 -0.069712095 -0.2743411 -0.0052405777 -0.12312442 0.02242456 -0.17490235
-0.35174632 -0.11544173 -0.09845051 -0.003233404 -0.09584794 0.20206401 -0.11825009 0.3831215
0.44263828 -0.2910077 -0.040517338 -0.34987918 0.010859683 0.20727445 0.0739322 -0.32005414
-0.6775693 0.024573956 0.41077498 -0.02795509 -0.24961428 -0.20366976 0.056474503 -0.16679838
-0.0052562547 0.13501695 0.034666337 -0.1603202 0.081533596 -0.1544495 -0.04360734 0.10099213
0.10156974 -0.04084331 -0.044077463 0.07749886 0.027214985 0.15972507 -0.083017595 0.14676562
-0.116865635 -0.06137608 -0.014496814 0.03673981 -0.033808667 0.064238854 -0.09354404 -0.20686403
-0.03767954 -0.22740561 0.27773848 -0.1248572 0.031836644 0.196292 -0.3378474 0.061649084
0.011759989 0.03924599 0.38539776 0.009671709 -0.018754615 0.13954593 -0.17207444 0.089665554
0.023196239 -0.17694625 0.5938037 -0.022957202 0.04243033 -0.013803714 0.22214052 -0.035509605
0.22695166 0.02909914 0.18049909 -0.057274565 0.08735597 -0.048839483 0.07151249 0.032173056
-0.09580694 -0.37435487 0.1266426 -0.0070397444 0.080521554 0.21066916 -0.025481531 0.064133056
0.1112281 0.07667619 -0.11194205 0.18253262 -0.10435329 0.31543458 -0.08616007 -0.23473339
-0.07642632 -0.022463912 0.29556674 -0.08646654 -0.4695853 0.057806175 0.17913932 -0.30589524
-0.220647 0.06876227 -0.050388217 -0.23234165 -0.30092576 -0.108856514 -0.12125478 -0.038200032
-0.082973845 -0.02032521 -0.1098456 -0.07910995 -0.47283164 -0.13379881 -0.29443708 -0.18656893
0.3604031 -0.29807645 -0.1945347 -0.013201248 0.09264688 0.030468248 -0.2591373 0.22363253
-0.18746126 0.0342844 0.13212752 0.05422383 0.047631606 0.08548895 0.25004676 0.028733432
0.20824808 0.187971 0.06684296 0.09577457 0.033915464 0.19985445 0.0022159696 -0.03643043
0.008913613 -0.0130119305 0.1498257 0.08967072 0.05978133 0.06526432 0.34023982 0.101780996
0.07475765 0.12339746 0.31477934 -0.012215382 0.19143581 -0.01997908 -0.14821373 0.011902744
-0.07134758 0.10763425 0.0012495033 -0.02146878 0.17474277 -0.045444034 0.26529393 0.1715656
0.032636754 0.27829495 -0.11825622 -0.059009816 0.2524564 0.03657 0.029382696 -0.053010758
-0.13036488 0.050279014 -0.07365221 -0.026750369 0.100157976 -0.11271505 -0.03960899 -0.052544914
00000000: bc08 b13d 76fc 4d3c 91fd d2bc 8d83 5c3e
00000010: bf5f 363d 509a d6bd 7cf6 34bd 1b14 733d
00000020: 4324 4fbd f2bf 853d 27ce b33c 6a05 73bd
00000030: b111 b03d bb96 afbd bdd2 84be c604 a03d
00000040: 0729 9b3d 4126 253e 72e3 3f3e 04bc aa3d
00000050: 29bc 9f3c 9631 aebd aa45 1a3e 779b e53d
00000060: 2760 4cbc 2ba4 173e 564f b23d fb2f b73d
00000070: 9a48 e93d 3e7a 793e 10b0 6fbe f4ec 7fbe
00000080: 2ea9 41be 4f33 c2bb 226f 1c3e df6c 1ebd
00000090: 3568 3cbd 4890 2f3e 4a49 1ebe 3c38 8cbd
000000a0: 5c2d 033e 1ae7 4639 72a2 55be b032 133e
000000b0: 1ab5 66bd b9c9 bcbb a5a8 d63d 8c64 ff3d
000000c0: e3eb f5bc 6d5c 19be 18f8 bbbe 20e4 9f3d
000000d0: 2a44 5abd df21 a03e 2376 533d 2efc 0c3e
000000e0: 083b c4bc 9298 41bd 94aa d8bc 3a38 6d3d
000000f0: f4ae c33d 5cba 38be 7c5b 123e 5d6f 033e
00000100: e7bc 28be c813 06be 37c5 8ebd 7076 8cbe
00000110: 27b9 abbb a828 fcbd b6b3 b73c 9a19 33be
00000120: 1818 b4be b76c ecbd 6ca0 c9bd 84e7 53bb
00000130: ed4b c4bd dee9 4e3e 1a2d f2bd 8028 c43e
00000140: 7ca1 e23e f6fe 94be 82f5 25bd 5d23 b3be
00000150: d0ec 313c c13f 543e c469 973d 23de a3be
00000160: 2f75 2dbf 524f c93c 1951 d23e 1302 e5bc
00000170: e39a 7fbe ce8e 50be cf51 673d 32cd 2abe
00000180: a93c acbb e241 0a3e 4afe 0d3d fa2a 24be
00000190: 16fb a63d 0228 1ebe 9c9d 32bd f6d4 ce3d
000001a0: cc03 d03d 514b 27bd 928a 34bd b9b7 9e3d
000001b0: f6f1 de3c f88e 233e 2105 aabd ba49 163e
000001c0: 4057 efbd 7c65 7bbd 0c84 6dbc 7c7c 163d
000001d0: f57a 0abd a98f 833d 0594 bfbd 2ad4 53be
000001e0: dd55 1abd 04dd 68be bd33 8e3e 22b5 ffbd
000001f0: 2467 023d c500 493e 56fa acbe c083 7c3d
00000200: f8ac 403c 67c0 203d db52 c53e 1676 1e3c
00000210: 47a3 99bc 21e5 0e3e 4834 30be 93a2 b73d
00000220: 0a06 be3c 6631 35be 8503 183f be10 bcbc
00000230: 6dcb 2d3d f928 62bc ce78 633e 8572 11bd
00000240: 0466 683e 5261 ee3c c1d4 383e bc98 6abd
00000250: b0e7 b23d e90b 48bd 2475 923d e5c7 033d
00000260: 6e36 c4bd 71ab bfbe 99ae 013e a8ad e6bb
00000270: 7ce8 a43d a8b9 573e a5be d0bc 3158 833d
00000280: 8fcb e33d 6808 9d3d e041 e5bd d5e9 3a3e
00000290: 2db7 d5bd a480 a13e b174 b0bd f35d 70be
000002a0: 6785 9cbd 3d06 b8bc 8654 973e 5f15 b1bd
000002b0: 7c6d f0be 2bc6 6c3d 4c70 373e 4d9e 9cbe
000002c0: 4af1 61be 3cd3 8c3d e063 4ebd f8ea 6dbe
000002d0: f112 9abe 2af0 debd 6d54 f8bd a377 1cbd
000002e0: 31ee a9bd 0e81 a6bc bbf6 e0bd 6604 a2bd
000002f0: fd16 f2be 8e02 09be 75c0 96be ed0b 3fbe
00000300: c186 b83e 7a9d 98be 1b34 47be 0c4a 58bc
00000310: a6bd bd3d 8c98 f93c a5ad 84be edff 643e
00000320: d8f5 3fbe cd6d 0c3d 704c 073e cf19 5e3d
00000330: 5c19 433d d514 af3d 2106 803e 6062 eb3c
00000340: fc3e 553e 787b 403e f6e4 883d 7525 c43d
00000350: f1ea 0a3d a5a6 4c3e cd39 113b 1338 15bd
00000360: 670a 123c fe2f 55bc e96b 193e 48a5 b73d
00000370: 45dd 743d 4da9 853d ea33 ae3e 8e72 d03d
00000380: 8a1a 993d cfb7 fc3d c22a a13e 0723 48bc
00000390: c007 443e 2bab a3bc 57c5 17be ba03 433c
000003a0: ae1e 92bd 586f dc3d 60c6 a33a 4bdf afbc
000003b0: c5ef 323e 8623 3abd 9bd4 873e e5ae 2f3e
000003c0: 1eae 053d ad7c 8e3e 5130 f2bd 47b4 71bd
000003d0: f741 813e 6dca 153d fbb3 f03c cf21 59bd
000003e0: 5f7e 05be 5ef1 4d3d f8d6 96bd 9723 dbbc
000003f0: a01f cd3d 26d7 e6bd 093d 22bd 5639 57bd

hidden.bias f4 [50]
-0.002003548 -0.08413243 0.1276283 0.032119516 0.41809833 0.09826648 -0.04499678 -0.012305735
0.0362083 -0.14757921 0.21631484 0.29107282 0.07596659 -0.20762941 -0.14689456 0.15965867
0.15094818 0.10109911 -0.00089921226 -0.05162195 -0.0228674 -0.13316073 -0.006840014 -0.020146051
0.4079833 -0.08553191 -0.10991712 0.3033381 -0.04396821 0.15470496 0.3284941 0.11281674
0.045790758 -0.06826596 0.07596392 0.069129586 -0.16315156 0.20179757 -0.081010096 0.1883274
0.099870205 -0.045562316 0.07957826 0.14677812 0.036967505 0.08957043 -0.19872999 0.08612152
0.0036862087 -0.10028094
00000000: f54d 03bb a04d acbd feb0 023e c18f 033d
00000010: fc10 d63e f03f c93d 8b4e 38bd fe9d 49bc
00000020: 284f 143d 011f 17be a381 5d3e 7f07 953e
00000030: 5f94 9b3d ce9c 54be 876b 16be 907d 233e
00000040: 2992 1a3e 0d0d cf3d 1db9 6bba 8a71 53bd
00000050: 6a54 bbbc 495b 08be 3222 e0bb 5509 a5bc
00000060: 30e3 d03e 5b2b afbd 3a1c e1bd 224f 9b3e
00000070: 0318 34bd fa6a 1e3e 6130 a83e 770c e73d
00000080: 178f 3b3d 06cf 8bbd f992 9b3d d093 8d3d
00000090: 3411 27be 06a4 4e3e 9fe8 a5bd e6d8 403e
000000a0: c088 cc3d 8d9f 3abd edf9 a23d 014d 163e
000000b0: 3d6b 173d b470 b73d e07f 4bbe 7b60 b03d
000000c0: 5294 713b 1860 cdbd

l_out.weight f4 [4, 50]
0.046619244 0.289801 0.026575712 -0.13302487 0.18284929 0.13350867 -0.021761073 0.01284126
-0.00685633 0.36976776 0.1056933 0.18934703 0.3253262 -0.25418848 -0.16778748 0.34322566
0.5344918 -0.38138452 0.3246422 0.12696323 -0.08502737 -0.17520276 0.06928214 0.16221157
0.22816141 -0.3611924 -0.22968528 0.07370397 0.16819833 0.09635402 0.148155 -0.2008678
-0.27055353 0.0037374627 -0.022018539 0.1580486 -0.3140384 0.18597545 -0.2253788 0.04456409
0.1637626 0.015742272 0.13540629 0.49005356 -0.20305589 0.12582749 -0.49271494 0.23632897
0.25257957 -0.022211477 0.05038227 0.37988412 0.18325634 -0.1483431 0.25700334 0.28213993
-0.22365297 0.1349293 0.18089688 0.22234158 0.2888891 0.17092237 0.34559777 -0.13348626
-0.11494458 0.20886788 0.409299 0.048147492 0.28574014 -0.010031992 -0.19449249 -0.07200019
0.24837396 0.122408316 0.16481845 0.2503764 -0.3092339 0.22658747 0.050408993 0.13448828
-0.018161485 -0.04611019 -0.046355005 0.13097867 0.060266156 0.06769009 -0.18157364 0.1481878
-0.33740386 -0.03138413 0.23423362 -0.23503478 0.1664345 0.24039039 -0.21078852 0.17824864
-0.032455556 0.4489775 0.18690601 0.008458498 0.12404574 0.38128576 0.13890105 -0.20926744
0.093083724 -0.27447012 -0.3414333 -0.024662318 0.20073242 -0.15462485 0.20102176 0.16688533
0.20371573 -0.05732417 0.18052353 0.18232222 0.44669908 0.016054437 0.36301693 0.40049514
-0.23478487 -0.17224246 0.18068592 -0.0006876747 0.23230201 -0.4804825 -0.020694619 0.27401444
0.1394092 -0.043193012 0.1876 -0.20432313 -0.4531151 -0.11115873 -0.051569346 -0.009471925
-0.27710006 0.20137204 -0.62219334 0.28139 0.33702397 -0.34540328 0.0012365476 0.12452675
-0.12160147 0.37571356 -0.3385697 0.132541 0.15607251 -0.12879588 0.06808247 0.35650295
0.108118825 -0.32183874 0.20516083 0.18347663 -0.40283543 0.3268475 0.17359515 0.112487786
0.27174908 0.16887592 -0.012928682 -0.30067465 -0.4076405 0.21463546 0.64735544 0.020164678
0.54288983 0.17829245 0.18348247 -0.11682069 -0.04853719 0.21258284 0.15018173 -0.10738073
-0.42170885 0.21397506 -0.036679164 0.3941881 0.19900545 -0.30401328 0.25411978 0.06546765
-0.25482976 -0.027702203 -0.26829374 0.2809824 0.09616527 0.05911037 0.24857633 -0.27815157
0.18066345 0.09384414 0.05322932 0.1380228 -0.16321024 0.21243559 0.33353895 0.12898321
00000000: d2f3 3e3d cc60 943e 4fb5 d93c ac37 08be
00000010: d83c 3b3e 7fb6 083e 4744 b2bc 2664 523c
00000020: 11ab e0bb 3352 bd3e bb75 d83d 30e4 413e
00000030: 2891 a63e fe24 82be 7bd0 2bbe 46bb af3e
00000040: 74d4 083f d544 c3be 8137 a63e a602 023e
00000050: d422 aebd 5a68 33be cbe3 8d3d ca1a 263e
00000060: 25a3 693e 36ee b8be 9e32 6bbe 1bf2 963d
00000070: 2f3c 2c3e 4255 c53d f2b5 173e 4ab0 4dbe
00000080: fe85 8abe 38f0 743b 3960 b4bc 7ed7 213e
00000090: a4c9 a0be 5970 3e3e b3c9 66be d688 363d
000000a0: 62b1 273e f0f5 803c f2a7 0a3e 4de8 fa3e
000000b0: e2ed 4fbe ecd8 003e 2245 fcbe 3900 723e
000000c0: 1c52 813e d8f4 b5bc a45d 4e3d 2c80 c23e
000000d0: 8da7 3b3e 41e7 17be f195 833e a574 903e
000000e0: 4905 65be e82a 0a3e 083d 393e 83ad 633e
000000f0: 46e9 933e 4606 2f3e 31f2 b03e 9fb0 08be
00000100: 1068 ebbd 76e1 553e a38f d13e 4e36 453d
00000110: 884c 923e 395d 24bc 0a29 47be d674 93bd
00000120: be55 7e3e 36b1 fa3d 2bc6 283e 5631 803e
00000130: e853 9ebe 8c06 683e a979 4e3d 4cb7 093e
00000140: 65c7 94bc 0ade 3cbd bfde 3dbd 461f 063e
00000150: a5d9 763d 1aa1 8a3d 71ee 39be 8bbe 173e
00000160: 33c0 acbe a58c 00bd f0da 6f3e f5ac 70be
00000170: ce6d 2a3e e628 763e f2d8 57be d086 363e
00000180: 1ef0 04bd 61e0 e53e 4a64 3f3e 8395 0a3c
00000190: b10b fe3d e337 c33e 143c 0e3e 344a 56be
000001a0: aea2 be3d 5987 8cbe 58d0 aebe a108 cabc
000001b0: cd8c 4d3e fa55 1ebe a6d8 4d3e fde3 2a3e
000001c0: db9a 503e c0cc 6abd 29db 383e adb2 3a3e
000001d0: beb5 e43e 9884 833c 5bdd b93e b30d cd3e
000001e0: 726b 70be 5460 30be bb05 393e 1145 34ba
000001f0: 94e0 6d3e cd01 f6be c387 a9bc 9f4b 8c3e
00000200: 49c1 0e3e 28eb 30bd 371a 403e 153a 51be
00000210: b4fe e7be 30a7 e3bd 613a 53bd 2230 1bbc
00000220: 0fe0 8dbe 7934 4e3e 1048 1fbf 5a12 903e
00000230: 688e ac3e b3d8 b0be a713 a23a e107 ff3d
00000240: 310a f9bd 875d c03e 0259 adbe d4b8 073e
00000250: 79d1 1f3e 11e3 03be d26e 8b3d 8e87 b63e
00000260: 676d dd3d 0cc8 a4be ae15 523e 4ce1 3b3e
00000270: 7240 cebe 8e58 a73e edc2 313e ff5f e63d
00000280: b222 8b3e cfed 2c3e d3d2 53bc 07f2 99be
00000290: 41b6 d0be 66c9 5b3e 16b9 253f 6530 a53c
000002a0: d4fa 0a3f 4c92 363e d4e2 3b3e b03f efbd
000002b0: efce 46bd 51af 593e 3dc9 193e 6eea dbbd
000002c0: 39ea d7be 471c 5b3e e43c 16bd 06d3 c93e
000002d0: 16c8 4b3e a1a7 9bbe fd1b 823e e713 863d
000002e0: 0c79 82be bbef e2bc cc5d 89be eddc 8f3e
000002f0: 4cf2 c43d b71d 723d cb8a 7e3e e269 8ebe
00000300: d7ff 383e 5b31 c03d fd06 5a3d d955 0d3e
00000310: 9620 27be b788 593e 9ec5 aa3e 2d14 043e

l_out.bias f4 [4]
0.31083962 0.18291636 0.15961933 0.048196416
00000000: 5f26 9f3e 6d4e 3b3e 4073 233e 9b69 453d
